{"format": "layers-model", "generatedBy": null, "convertedBy": "TensorFlow.js Converter v1.6.0", "modelTopology": null, "weightsManifest": [{"paths": ["group1-shard1of1.bin"], "weights": [{"name": "embedding_1/embeddings", "shape": [500, 50], "dtype": "float32"}, {"name": "lstm_1/kernel", "shape": [50, 256], "dtype": "float32"}, {"name": "lstm_1/recurrent_kernel", "shape": [64, 256], "dtype": "float32"}, {"name": "lstm_1/bias", "shape": [256], "dtype": "float32"}, {"name": "FC1/kernel", "shape": [64, 256], "dtype": "float32"}, {"name": "FC1/bias", "shape": [256], "dtype": "float32"}, {"name": "out_layer/kernel", "shape": [256, 1], "dtype": "float32"}, {"name": "out_layer/bias", "shape": [1], "dtype": "float32"}]}]}